weights/regressor_weights.npz (npz, 584 bytes, 2 tensors)

sgd f8 [8]
0.29363948411796287 0.2936394841179567 0.2936394841179636 -0.2002482018079641 0.16960833972315514 0.9686237876747116 -0.03796282924217921 0.03719782711150063
00000000: 2976 4643 fdca d23f ba75 4643 fdca d23f
00000010: 3676 4643 fdca d23f b88b ecaa bba1 c9bf
00000020: 10b2 1ee0 b9b5 c53f db18 4650 f7fe ee3f
00000030: 021a 1e2c dd6f a3bf 4c31 daf5 970b a33f

pa f8 [8]
0.6782187085980999 0.6782187085979687 0.6782187085981873 -0.16950294531577334 0.018468415163220828 0.49056098614731275 -0.11989706784892754 -0.14738896290616302
00000000: abda 9eb8 f7b3 e53f 0ed6 9eb8 f7b3 e53f
00000010: bfdd 9eb8 f7b3 e53f 737c 5ac3 45b2 c5bf
00000020: 3c39 8a5c 62e9 923f d38e 0ce8 5965 df3f
00000030: d224 4c01 93b1 bebf fd95 bc3b a4dd c2bf
